Model: "discriminator"
_________________________________________________________________
Layer (type)                 Output Shape              Param #
=================================================================
conv1d (Conv1D)              (None, 37, 128)           640
_________________________________________________________________
leaky_re_lu (LeakyReLU)      (None, 37, 128)           0
_________________________________________________________________
conv1d_1 (Conv1D)            (None, 19, 256)           131328
_________________________________________________________________
leaky_re_lu_1 (LeakyReLU)    (None, 19, 256)           0
_________________________________________________________________
conv1d_2 (Conv1D)            (None, 10, 256)           262400
_________________________________________________________________
leaky_re_lu_2 (LeakyReLU)    (None, 10, 256)           0
_________________________________________________________________
flatten (Flatten)            (None, 2560)              0
_________________________________________________________________
dropout (Dropout)            (None, 2560)              0
_________________________________________________________________
dense (Dense)                (None, 1)                 2561
=================================================================
Total params: 396,929
Trainable params: 396,929
Non-trainable params: 0
_________________________________________________________________
Model: "generator"
_________________________________________________________________
Layer (type)                 Output Shape              Param #
=================================================================
dense_1 (Dense)              (None, 80)                10320
_________________________________________________________________
reshape (Reshape)            (None, 5, 16)             0
_________________________________________________________________
conv1d_transpose (Conv1DTran (None, 10, 16)            1040
_________________________________________________________________
leaky_re_lu_3 (LeakyReLU)    (None, 10, 16)            0
_________________________________________________________________
conv1d_transpose_1 (Conv1DTr (None, 20, 32)            2080
_________________________________________________________________
leaky_re_lu_4 (LeakyReLU)    (None, 20, 32)            0
_________________________________________________________________
conv1d_transpose_2 (Conv1DTr (None, 40, 64)            8256
_________________________________________________________________
leaky_re_lu_5 (LeakyReLU)    (None, 40, 64)            0
_________________________________________________________________
conv1d_transpose_3 (Conv1DTr (None, 80, 128)           32896
_________________________________________________________________
leaky_re_lu_6 (LeakyReLU)    (None, 80, 128)           0
_________________________________________________________________
conv1d_3 (Conv1D)            (None, 80, 1)             641
_________________________________________________________________
cropping1d (Cropping1D)      (None, 74, 1)             0
=================================================================
Total params: 55,233
Trainable params: 55,233
Non-trainable params: 0
_________________________________________________________________
(1252, 74)
Epoch 1/100
2021-12-23 20:24:35.530855: I tensorflow/compiler/mlir/mlir_graph_optimization_pass.cc:185] None of the MLIR Optimization Passes are enabled (registered 2)
3/3 [==============================] - 1s 171ms/step - d_loss: 0.6861 - g_loss: 0.7196
…
